…
://localhost:8080/"},"executionInfo":{"status":"ok","timestamp":1716821582926,"user_tz":-300,"elapsed":848,"user":{"displayName":"Rana Usman","userId":"18037958457292621686"}},"outputId":"67a65576-6e30-4fd1-bf06-df4917daf1cc"},"execution_count":13,"outputs":[{"output_type":"stream","name":"stdout","text":["AlexNet Model Summary:\n","Model: \"sequential\"\n","_________________________________________________________________\n"," Layer (type)                Output Shape              Param #   \n","=================================================================\n"," conv2d (Conv2D)             (None, 54, 54, 96)        34944     \n","                                                                 \n"," max_pooling2d (MaxPooling2  (None, 26, 26, 96)        0         \n"," D)                                                              \n","                                                                 \n"," conv2d_1 (Conv2D)           (None, 26, 26, 256)       614656    \n","                                                                 \n"," max_pooling2d_1 (MaxPoolin  (None, 12, 12, 256)       0         \n"," g2D)                                                            \n","                                                                 \n"," conv2d_2 (Conv2D)           (None, 12, 12, 384)       885120    \n","                                                                 \n"," conv2d_3 (Conv2D)           (None, 12, 12, 384)       1327488   \n","                                                                 \n"," conv2d_4 (Conv2D)           (None, 12, 12, 256)       884992    \n","                                                                 \n"," max_pooling2d_2 (MaxPoolin  (None, 5, 5, 256)         0         \n"," g2D)                                                            \n","                                                                 \n"," flatten (Flatten)           (None, 6400)              0         \n","                                                                 \n"," dense (Dense)               (None, 2048)              13109248  \n","                                                                 \n"," dropout (Dropout)           (None, 2048)              0         \n","                                                                 \n"," dense_1 (Dense)             (None, 2048)              4196352   \n","                                                                 \n"," dropout_1 (Dropout)         (None, 2048)              0         \n","                                                                 \n"," dense_2 (Dense)             (None, 2)                 4098      \n","                                                                 \n","=================================================================\n","Total params: 21056898 (80.33 MB)\n","Trainable params: 21056898 (80.33 MB)\n","Non-trainable params: 0 (0.00 Byte)\n","_________________________________________________________________\n","\n","VGG16 Model Summary:\n","Model: \"model\"\n","_________________________________________________________________\n"," Layer (type)                Output Shape              Param #   \n","=================================================================\n"," input_1 (InputLayer)        [(None, 224, 224, 3)]     0         \n","                                                                 \n"," block1_conv1 (Conv2D)       (None, 224, 224, 64)      1792      \n","                                                                 \n"," block1_conv2 (Conv2D)       (None, 224, 224, 64)      36928     \n","                                                                 \n"," block1_pool (MaxPooling2D)  (None, 112, 112, 64)      0         \n","                                                                 \n"," block2_conv1 (Conv2D)       (None, 112, 112, 128)     73856     \n","                                                                 \n"," block2_conv2 (Conv2D)       (None, 112, 112, 128)     147584    \n","                                                                 \n"," block2_pool (MaxPooling2D)  (None, 56, 56, 128)       0         \n","                                                                 \n"," block3_conv1 (Conv2D)       (None, 56, 56, 256)       295168    \n","                                                                 \n"," block3_conv2 (Conv2D)       (None, 56, 56, 256)       590080    \n","                                                                 \n"," block3_conv3 (Conv2D)       (None, 56, 56, 256)       590080    \n","                                                                 \n"," block3_pool (MaxPooling2D)  (None, 28, 28, 256)       0         \n","                                                                 \n"," block4_conv1 (Conv2D)       (None, 28, 28, 512)       1180160   \n","                                                                 \n"," block4_conv2 (Conv2D)       (None, 28, 28, 512)       2359808   \n","                                                                 \n"," block4_conv3 (Conv2D)       (None, 28, 28, 512)       2359808   \n","                                                                 \n"," block4_pool (MaxPooling2D)  (None, 14, 14, 512)       0         \n","                                                                 \n"," block5_conv1 (Conv2D)       (None, 14, 14, 512)       2359808   \n","                                                                 \n"," block5_conv2 (Conv2D)       (None, 14, 14, 512)       2359808   \n","                                                                 \n"," block5_conv3 (Conv2D)       (None, 14, 14, 512)       2359808   \n","                                                                 \n"," block5_pool (MaxPooling2D)  (None, 7, 7, 512)         0         \n","                                                                 \n"," flatten_1 (Flatten)         (None, 25088)             0         \n","                                                                 \n"," dense_3 (Dense)             (None, 2048)              51382272  \n","                                                                 \n"," dense_4 (Dense)             (None, 2048)              4196352   \n","                                                                 \n"," dense_5 (Dense)             (None, 2)                 4098      \n","                                                                 \n","=================================================================\n","Total params: 70297410 (268.16 MB)\n","Trainable params: 55582722 (212.03 MB)\n","Non-trainable params: 14714688 (56.13 MB)\n","_________________________________________________________________\n"]}]},{"cell_type":"code","source":["# Display some sa
…
